developpement/MNIST/weights/mnist_net.pth (torch, 184532 bytes, 10 tensors)

conv1.weight f4 [8, 1, 5, 5]
0.30106246 0.066909075 0.041879255 -0.12585399 -0.305335 0.21843286 0.27817708 -0.14341067
-0.07532271 -0.079004794 0.36813855 0.31881815 0.013349495 -0.4169541 -0.3366333 0.43486866
0.25596657 -0.13704145 -0.35957846 -0.17530914 0.23055738 -0.003667124 -0.13979264 -0.28333023
0.0125011355 0.025122285 0.14573571 0.024560811 0.22665083 -0.0795833 0.012383255 -0.22427472
-0.053989947 0.23645532 0.12817203 0.15139453 -0.18716314 -0.080562636 0.057627365 0.20345439
-0.040931948 0.08664322 0.13611192 0.2882413 -0.18453535 0.15550931 0.045587827 0.19076793
0.15141293 -0.039660115 0.020418465 -0.0036979283 -0.2588127 -0.29940164 -0.44553724 -0.26814288
-0.07599274 -0.376716 -0.4216339 -0.50219256 -0.22242187 -0.16380484 -0.23906553 -0.54496515
-0.58275896 -0.348188 -0.18509115 -0.23064144 -0.29206145 -0.5223451 -0.22927816 -0.25191846
-0.4473232 -0.23861176 -0.34658912 0.017326053 -0.069601536 0.1247262 -0.123265296 0.05254587
0.16411789 -0.21605 -0.079542875 0.24465542 0.23624617 0.13328075 0.04519635 -0.13460986
0.027175626 -0.05717507 -0.061186895 -0.16913898 -0.015456564 -0.022615623 -0.009004031 0.09896675
0.18196303 -0.022879692 -0.22225761 0.0017904034 -0.2394822 0.082237594 -0.06652015 0.0008985483
0.082997516 -0.030124338 -0.21507388 0.068357654 -0.21443367 -0.31868327 0.087852605 0.05594896
-0.16911994 -0.296314 -0.3265058 0.18290193 0.081617534 -0.16426362 -0.15163107 0.11560909
0.34502703 0.39576125 0.26913878 0.33346862 0.1364366 0.2501213 0.1433154 0.32646462
0.15925717 0.2551686 0.22142908 0.24791387 -0.045014743 0.03917717 0.25873387 -0.046303276
-0.10409689 -0.20200203 -0.024004342 -0.013203525 -0.26157567 -0.120021656 -0.029316157 -0.23392251
-0.2860965 0.065068275 -0.22246018 -0.2865744 -0.15877669 0.021974036 -0.15496136 -0.07823814
0.23554008 0.2844036 0.19268815 -0.1246458 -0.14768764 0.29357657 0.29898414 0.0052125785
-0.34326243 0.064914316 0.3965301 0.36172435 -0.12117769 -0.08639125 -0.09855864 0.39272574
0.22414781 -0.20965411 -0.008431569 0.24493656 0.2692165 0.10631358 0.03809422 0.1649521
-0.06871087 -0.028564954 0.0023403394 0.17622803 -0.20338246 0.2103695 0.22106755 -0.18406896
0.057863265 -0.13895905 0.25314146 -0.12311994 -0.2052821 -0.18382956 0.0035108742 0.18092111
0.09715025 0.18338291 -0.07088491 -0.14452457 -0.05273181 -0.10667551 -0.0401069 0.15134433
00000000: dc24 9a3e a007 893d 9589 2b3d dedf 00be
00000010: de54 9cbe ddac 5f3e 3a6d 8e3e 3fda 12be
00000020: cb42 9abd 44cd a1bd a87c bc3e 223c a33e
00000030: d7b7 5a3c 027b d5be 335b acbe 1ba7 de3e
00000040: 0d0e 833e 9854 0cbe ab1a b8be 3d84 33be
00000050: 3c17 6c3e 2254 70bb cd25 0fbe a910 91be
00000060: 90d1 4c3c 40cd cd3c be3b 153e c133 c93c
00000070: 2817 683e 92fc a2bd 23e3 4a3c 46a8 65be
00000080: 9024 5dbd 5821 723e 873f 033e 2b07 1b3e
00000090: b2a7 3fbe 06fe a4bd ac0a 6c3d 5956 503e
000000a0: 42a8 27bd 0072 b13d ec60 0b3e 5d94 933e
000000b0: d6f6 3cbe d53d 1f3e 4dba 3a3d ab58 433e
000000c0: fe0b 1b3e a572 22bd a044 a73c f158 72bb
000000d0: 1983 84be 2c4b 99be 751d e4be 064a 89be
000000e0: 15a2 9bbd ebe0 c0be 66e0 d7be b18f 00bf
000000f0: 8fc2 63be 75bc 27be 98cd 74be d682 0bbf
00000100: b12f 15bf b345 b2be 8988 3dbe 452d 6cbe
00000110: 1489 95be 69b8 05bf e5c7 6abe 75fb 80be
00000120: 8c07 e5be a456 74be 2174 b1be 5eef 8d3c
00000130: 408b 8ebd 7370 ff3d 8472 fcbd 573a 573d
00000140: 850e 283e 363c 5dbe 60e7 a2bd f386 7a3e
00000150: 84ea 713e c07a 083e cf1f 393d 2bd7 09be
00000160: 6b9f de3c 6830 6abd 1c9f 7abd c532 2dbe
00000170: 873d 7dbc 6644 b9bc a585 13bc 14af ca3d
00000180: 8454 3a3e 316e bbbc 8097 63be f8ab ea3a
00000190: d23a 75be 2f6c a83d b73b 88bd 8e8c 6b3a
000001a0: 9afa a93d 51c7 f6bc 543c 5cbe 19ff 8b3d
000001b0: 8094 5bbe 742a a3be 11ec b33d bd2a 653d
000001c0: c72d 2dbe 78b6 97be c52b a7be a54a 3b3e
000001d0: 1827 a73d b934 28be 2d45 1bbe 75c4 ec3d
000001e0: 62a7 b03e 38a1 ca3e 8fcc 893e 66bc aa3e
000001f0: 09b6 0b3e e60f 803e 46c1 123e 5f26 a73e
00000200: 5014 233e 75a5 823e 4ebe 623e 22dd 7d3e
00000210: 6161 38bd 3d78 203d c478 843e 81a8 3dbd
00000220: c030 d5bd 9fd9 4ebe c1a4 c4bc 9953 58bc
00000230: 3fed 85be eacd f5bd 7028 f0bc 6289 6fbe
00000240: 3e7b 92be 8442 853d 9acc 63be e1b9 92be
00000250: 5b96 22be e502 b43c 31ae 1ebe 513b a0bd
00000260: 6b31 713e 599d 913e 0b50 453e 4c46 ffbd
00000270: 6e3b 17be ab4f 963e 7314 993e 47ce aa3b
00000280: 18c0 afbe ccf1 843d fe05 cb3e ef33 b93e
00000290: 022c f8bd e5ed b0bd 1dd9 c9bd 5913 c93e
000002a0: 0187 653e 91af 56be 9024 0abc a6d0 7a3e
000002b0: bfd6 893e efba d93d af08 1c3d 34e9 283e
000002c0: 49b8 8cbd 0d01 eabc 6160 193b 1f75 343e
000002d0: 7e43 50be 1a6b 573e 885f 623e 937c 3cbe
000002e0: 0802 6d3d 484b 0ebe c29b 813e 4f26 fcbd
000002f0: 7935 52be d13d 3cbe b216 663b 6243 393e
00000300: b6f6 c63d bbc8 3b3e 1c2c 91bd 40fe 13be
00000310: 4ffd 57bd b178 dabd 2247 24bd 02fa 1a3e

conv1.bias f4 [8]
-0.020959182 -0.08500617 0.1975464 0.110365644 0.035266705 0.20019732 0.049078453 0.14029007
00000000: 97b2 abbc b717 aebd 9a49 4a3e 6207 e23d
00000010: d273 103d 8700 4d3e 7d06 493d 33a8 0f3e

conv2.weight f4 [16, 8, 5, 5]
0.049016953 0.0151036065 -0.08690719 -0.06706795 -0.043823898 0.02157872 0.05119062 -0.110077694
0.005731706 0.09446227 0.0029573115 0.061553925 0.0097764 0.0458202 0.13840283 0.037787136
-0.0027293216 -0.004721892 0.11937551 0.11640127 0.105879836 -0.0033264353 -0.07174849 0.058738664
0.08247101 -0.06499546 0.024634276 -0.049228545 0.0253269 0.023204835 -0.0070495023 0.022672059
0.0018114685 0.017650286 0.03197869 0.047642644 -0.029462915 0.082100965 0.084543824 -0.07595618
0.05871247 0.018308464 -0.028043 -0.072051704 0.03804452 -0.057969783 -0.016085325 -0.04339822
0.009920157 0.024883663 -0.101009466 -0.025882687 -0.05201967 -0.09191384 -0.14411527 0.06142116
0.11199996 0.16237526 0.0022973788 -0.1207347 0.094773605 0.22998632 0.20068298 -0.15301992
0.038557366 0.13670605 0.16902988 -0.039004378 -0.07910977 0.054196626 0.07752069 0.09314237
0.07300081 -0.00537561 0.0535277 0.002881132 0.040690012 -0.06122722 -0.08212524 -0.05356633
-0.03436127 -0.006446474 -0.019030994 -0.07857797 -0.014959435 -0.060619988 0.027375758 0.026800951
-0.045544546 -0.08304401 -0.09319863 -0.086163774 -0.04536944 -0.07191173 0.006539821 -0.023671072
0.02213266 -0.082914144 0.021580746 -0.04932199 -0.004782512 -0.009847595 -0.0891629 -0.091872714
-0.061960768 -0.060834173 -0.10868547 -0.092237525 -0.17806798 -0.08061384 -0.0076287943 -0.11693365
-0.17598523 -0.05077621 0.025666332 -0.087449856 -0.09469649 -0.16650903 -0.043983325 0.06700751
-0.03566537 -0.05710661 0.0083339615 -0.023655647 0.03610605 0.019945307 -0.053983662 -0.06337563
-0.08593745 -0.07390121 0.017029379 -0.012513924 -0.0009152754 -0.042730756 0.008894504 -0.08400695
0.027910039 -0.11065113 -0.120453276 -0.07491219 -0.07912719 8.416646e-05 -0.036582246 -0.029052239
-0.063410215 -0.08446435 -0.08177058 -0.04569178 -0.094066024 0.041677363 -0.047609217 -0.08558874
-0.00324445 0.022579655 0.002992093 -0.030070685 -0.07264096 0.033845637 0.116660565 0.11287386
0.020183386 -0.03146202 -0.009466192 0.17742613 0.10885791 0.049503494 -0.029914116 0.10436952
0.20323564 -0.05192738 0.0635989 0.0069850413 0.05762784 0.1359942 -0.06330348 -0.058866106
-0.086121246 -0.04587706 -0.00797059 -0.08104708 -0.040778387 0.01867469 -0.045552958 -0.04298925
0.0020836797 -0.08082077 -0.10535872 -0.077982225 -0.035976786 0.050690863 -0.018802322 -0.06138662
-0.006879818 -0.01862042 0.06611693 -0.09352987 -0.011092273 -0.0727438 0.014870886 0.032733925
-0.056404766 -0.018167494 -0.04393274 -0.00029800882 0.05749635 0.005628442 0.068876 -0.0031256548
0.045389444 -0.017013397 -0.051371243 0.011312698 0.06793205 0.025053428 -0.03636983 0.049848624
-0.004365306 -0.037721477 -0.0041614566 0.034604438 -0.044104815 0.06742723 -0.024847198 0.06330266
0.0058278437 -0.066465005 -0.06606516 0.06918832 0.0105623035 -0.0064057214 -0.058586173 -0.06699671
-0.040932834 -0.022741582 0.022021856 0.0066345804 0.056399256 -0.06778124 -0.062406506 -0.06840791
0.061446477 -0.026430558 -0.029522562 0.018468354 -0.060619526 0.06662112 -0.02394196 0.0030896273
-0.008658005 -0.05867235 -0.003665366 -0.058475 -0.010277536 -0.031314958 -0.013056941 -0.07003859
00000000: 00c6 483d 1e75 773c 66fc b1bd ec5a 89bd
00000010: b080 33bd dbc5 b03c 41ad 513d 6a70 e1bd
00000020: 09d1 bb3b 6f75 c13d 74cf 413b f81f 7c3d
00000030: 322d 203c f6ad 3b3d 79b9 0d3e afc6 1a3d
00000040: 6bde 32bb 1aba 9abb 267b f43d ca63 ee3d
00000050: 87d7 d83d 5300 5abb dff0 92bd f497 703d
00000060: 90e6 a83d 571c 85bd d2cd c93c dfa3 49bd
00000070: 5c7a cf3c 1118 be3c 83ff e6bb c1ba b93c
00000080: cc6e ed3a 5597 903c 16fc 023d ef24 433d
00000090: 365c f1bc 8d24 a83d 5025 ad3d ea8e 9bbd
000000a0: 7d7c 703d a2fb 953c 6fba e5bc d88f 93bd
000000b0: 92d4 1b3d b971 6dbd 5fc5 83bc 55c2 31bd
000000c0: 2788 223c d3d8 cb3c 0dde cebd ee07 d4bc
000000d0: 9412 55bd 533d bcbd f492 13be c194 7b3d
000000e0: 3c60 e53d b345 263e 9f8f 163b c143 f7bd
000000f0: aa18 c23d 8981 6b3e d77f 4d3e 41b1 1cbe
00000100: 54ee 1d3d acfc 0b3e 2b16 2d3e 0ec3 1fbd
00000110: 4e04 a2bd 48fd 5d3d 2bc3 9e3d 6dc1 be3d
00000120: 7381 953d e325 b0bb dd3f 5b3d 60d1 3c3b
00000130: 92aa 263d 65c9 7abd 4731 a8bd 5e68 5bbd
00000140: 67be 0cbd f23c d3bb e3e6 9bbc 7ded a0bd
00000150: 6b18 75bc aa4c 78bd 2043 e03c ab8d db3c
00000160: eb8c 3abd fa12 aabd ecde bebd a276 b0bd
00000170: 4ed5 39bd 7546 93bd ff4b d63b d6e9 c1bc
00000180: 8d4f b53c e4ce a9bd 1bca b03c db05 4abd
00000190: 9eb6 9cbb cf57 21bc 0a9b b6bd c327 bcbd
000001a0: 93ca 7dbd 412d 79bd 7d96 debd 07e7 bcbd
000001b0: 7457 36be de18 a5bd f7fa f9bb e97a efbd
000001c0: 7935 34be b7fa 4fbd 3342 d23c e918 b3bd
000001d0: 3cf0 c1bd 5881 2abe dc27 34bd 3c3b 893d
000001e0: da15 12bd 9fe8 69bd 2b8b 083c 7dc9 c1bc
000001f0: f0e3 133d 5764 a33c f91d 5dbd 15cb 81bd
00000200: f9ff afbd 8559 97bd 3281 8b3c 3407 4dbc
00000210: 18ef 6fba 7206 2fbd 41ba 113c d60b acbd
00000220: 98a3 e43c 0f9d e2bd 35b0 f6bd 906b 99bd
00000230: 700d a2bd 8682 b038 44d7 15bd f6fe edbc
00000240: 37dd 81bd a5fb acbd 5577 a7bd 4e27 3bbd
00000250: b0a5 c0bd e2b5 2a3d e201 43bd 2649 afbd
00000260: d7a0 54bb f8f8 b83c fe16 443b cc56 f6bc
00000270: c9c4 94bd b9a1 0a3d bceb ee3d 692a e73d
00000280: a157 a53c 52de 00bd 1618 1bbc 32af 353e
00000290: e5f0 de3d 2dc4 4a3d 730e f5bc b0bf d53d
000002a0: 011d 503e ceb1 54bd 2440 823d c6e2 e43b
000002b0: 2c0b 6c3d 1042 0b3e 41a5 81bd 961d 71bd
000002c0: 5660 b0bd 96e9 3bbd 1497 02bc 03fc a5bd
000002d0: 3d07 27bd aafb 983c bd95 3abd 7f15 30bd
000002e0: 588e 083b 5c85 a5bd 50c6 d7bd 25b5 9fbd
000002f0: 655c 13bd 39a1 4f3d 5407 9abc 8970 7bbd
00000300: 1970 e1bb da89 98bc 5068 873d 978c bfbd
00000310: 5dbc 35bc b4fa 94bd 04a5 733c 0214 063d
00000320: af08 67bd ffd3 94bc d1f2 33bd 113e 9cb9
00000330: 4b81 6b3d cb6e b83b dc0e 8d3d c9d7 4cbb
00000340: 48ea 393d ae5f 8bbc a76a 52bd e558 393c
00000350: f51f 8b3d d93c cd3c 88f8 14bd 122e 4c3d
00000360: d70a 8fbb d681 1abd d45c 88bb 62bd 0d3d
00000370: 40a7 34bd 4a17 8a3d 5a8c cbbc d3a4 813d
00000380: 7ff7 be3b ce1e 88bd 2c4d 87bd 9bb2 8d3d
00000390: 830d 2d3c 16e7 d1bb 0ef8 6fbd 9235 89bd
000003a0: 30a9 27bd 8e4c babc 2e67 b43c e566 d93b
000003b0: e802 673d e4d0 8abd f79d 7fbd 7219 8cbd
000003c0: 4daf 7b3d e684 d8bc 4dd9 f1bc f24a 973c
000003d0: 2e4c 78bd a770 883d ee21 c4bc 587b 4a3b
000003e0: 4eda 0dbc 6b52 70bd a336 70bb 7b83 6fbd
000003f0: 1c63 28bc 1d44 00bd c8ec 55bc 6470 8fbd

conv2.bias f4 [16]
-0.011109835 -0.035564937 -0.042319614 0.011789436 -0.0626572 -0.034540903 -0.0075865295 0.06967946
-0.03304396 -0.026711809 0.014365021 -0.0034170127 0.056102473 -0.042568933 0.047357515 0.012343113
00000000: 0606 36bc 8aac 11bd 5557 2dbd 7b28 413c
00000010: 6b52 80bd c37a 0dbd 6c98 f8bb 1bb4 8e3d
00000020: 1a59 07bd b9d2 dabc 445b 6b3c f6ef 5fbb
00000030: b5cb 653d c35c 2ebd f4f9 413d c53a 4a3c

fc1.weight f4 [128, 256]
0.03646831 0.056854017 0.017925013 0.003949205 0.029945457 0.0022991286 -0.062544025 -0.030586602
-0.05066157 0.06414268 -0.033481237 0.00787456 0.010825007 -0.025121784 -0.020600993 0.029652325
-0.016755963 -0.062284328 0.027539238 0.040081397 0.043582384 -0.03857633 -0.013019774 -0.01760922
-0.017324612 0.019637467 -0.0015560497 0.036882907 0.04074409 -0.029764041 -0.0053095487 0.011628194
0.036814645 -0.051911555 -0.0035673727 0.03853798 0.020693228 0.0031157928 -0.0127280345 0.029050343
0.042053886 0.0038142826 0.017470324 0.032654412 0.03974138 0.016415624 0.033827618 -0.051768582
-0.015506917 -0.038341172 0.007852185 -0.016206032 0.055273715 -0.043066617 -0.03838827 0.056606386
0.0638581 0.02240276 0.009707511 -0.011796601 -0.0031088444 0.048063412 -0.060759798 -0.06112646
0.05497949 -0.035823766 -0.03224658 0.0057511777 0.030202236 0.02254496 -0.033273865 0.060099494
-0.05937043 -0.009630227 0.049698003 -0.03945135 -0.05812916 -0.020255055 -0.058313407 0.023314215
-0.009490053 0.03396929 0.019374678 -0.033011217 -0.052435253 0.014641372 -0.038126037 0.024616541
-0.009901025 0.061204933 -0.051964264 -0.017040415 0.049002204 0.01930098 -0.035748243 0.00911437
0.047406904 0.05420109 -0.04182591 0.032361362 -0.029149905 0.044833925 0.006190368 -0.03727517
-0.048529733 0.044539496 -0.0160828 0.022260187 0.0373105 0.0023492607 -0.009354699 0.06063386
0.011169587 -0.052444365 0.024462776 0.014548962 0.03760898 -0.040563494 0.013715842 0.007263994
-0.05666408 0.025762927 -0.037470676 -0.02329377 -0.055294234 0.009222108 0.04529443 0.020062804
-0.043828405 0.01165535 -0.049031455 -0.055808492 0.047767956 0.044433426 0.06735885 0.02796756
0.04801401 0.059219535 -0.027598862 0.028930698 -0.009461973 -0.020231538 0.0064693308 -0.047338247
-0.04602004 -0.04019636 0.016976207 0.02244323 0.0011913339 0.050453365 0.06303056 -0.053754814
0.022304423 0.02781114 0.011454171 -0.010910763 0.055423383 -0.004530985 0.030510832 -0.029563008
-0.046186 0.013824622 0.024106005 0.028909158 -0.020597927 -0.052101277 0.011617946 -0.0417062
-0.005542056 -0.02595779 -0.060474858 0.015357205 0.0039720796 -0.06120012 0.033228427 -4.968972e-05
-0.015357539 -0.03898379 0.043105587 0.008253848 -0.01892859 -0.003422885 -0.027574683 -0.04346384
0.0060718902 0.015979975 0.04274947 -0.025319042 0.056147084 -0.034458645 -0.0046620644 0.005893668
-0.047400035 -0.036967285 0.002370361 0.025164954 -0.036282584 -0.03825044 -0.018633233 0.051271416
-0.040601708 0.03529754 0.041754745 -0.055396862 -0.012581505 -0.027700685 0.012061368 -0.020858774
-0.058677427 0.026770653 0.0503206 0.03132031 -0.032227468 -0.05151595 -0.05894765 -0.020719895
-0.027699297 0.048395596 -0.03876212 -0.048487917 0.012673511 0.014621943 0.06222071 -0.020353783
0.050619837 -0.02381222 -0.04529053 -0.016361073 -0.039286446 0.008194192 -0.014600408 -0.057980713
0.022038138 -0.038756963 0.022518525 0.026982654 -0.039685283 0.006205372 0.036862027 0.012286831
0.005055316 -0.058790166 -0.036903605 -0.061709814 0.059220295 0.049877208 0.004267872 0.020401325
0.004791508 0.06226586 -0.03749171 0.026037976 0.030420061 -0.044542827 0.057744645 -0.026826434
00000000: cb5f 153d c2df 683d 7ad7 923c 5568 813b
00000010: 2d50 f53c faac 163b 1517 80bd c190 fabc
00000020: 8282 4fbd 3d5d 833d 9f23 09bd 4c04 013c
00000030: 5f5b 313c 33cc cdbc 6ac3 a8bc 6fe9 f23c
00000040: cd43 89bc da1d 7fbd f899 e13c 642c 243d
00000050: 7183 323d 3702 1ebd e450 55bc 3641 90bc
00000060: 58ec 8dbc c1de a03c 5df4 cbba 8812 173d
00000070: 46e3 263d b8d3 f3bc b9fb adbb 2e84 3e3c
00000080: f4ca 163d 36a1 54bd 95ca 69bb 00da 1d3d
00000090: d884 a93c 5432 4c3b 3f89 50bc fcfa ed3c
000000a0: b240 2c3d 0bf9 793b ed1d 8f3c a2c0 053d
000000b0: dbc7 223d 0f7a 863c d48e 0a3d 4b0b 54bd
000000c0: b910 7ebc a20b 1dbd 73a6 003c 83c2 84bc
000000d0: b166 623d 9f66 30bd 053d 1dbd 19dc 673d
000000e0: 09c8 823d fe85 b73c 410c 1f3c 8846 41bc
000000f0: c1bd 4bbb 24de 443d 44df 78bd bd5f 7abd
00000100: 2c32 613d f1bb 12bd fd14 04bd 6074 bc3b
00000110: ae6a f73c 35b0 b83c 2d4a 08bd e32a 763d
00000120: 682e 73bd 1ac8 1dbc 2290 4b3d bd97 21bd
00000130: d818 6ebd eeed a5bc 0ada 6ebd 74fd be3c
00000140: 2b7c 1bbc 6223 0b3d a5b7 9e3c c536 07bd
00000150: 59c6 56bd 5de2 6f3c 0c2a 1cbd a1a8 c93c
00000160: e937 22bc 06b2 7a3d 7bd8 54bd 5798 8bbc
00000170: 89b6 483d 171d 9e3c c06c 12bd 7054 153c
00000180: be2d 423d f601 5e3d a551 2bbd 598d 043d
00000190: c8cb eebc c7a3 373d 92d8 ca3b d9ad 18bd
000001a0: 1dc7 46bd 0c6f 363d 14c0 83bc ff5a b63c
000001b0: e5d2 183d 0ef6 193b 7444 19bc 365b 783d
000001c0: a500 373c e7cf 56bd 2966 c83c c55e 6e3c
000001d0: e00b 1a3d e825 26bd 69b8 603c cc06 ee3b
000001e0: 9818 68bd c60c d33c da7a 19bd 94d2 bebc
000001f0: 357c 62bd 5318 173c a786 393d c05a a43c
00000200: 6a85 33bd 15f6 3e3c 35d5 48bd 7297 64bd
00000210: 55a8 433d d3ff 353d 70f3 893d 391c e53c
00000220: 57aa 443d 2f90 723d 0217 e2bc 1200 ed3c
00000230: 6406 1bbc 9cbc a5bc aefc d33b c0e5 41bd
00000240: 827f 3cbd f0a4 24bd b011 8b3c ddda b73c
00000250: 8826 9c3a 30a8 4e3d 2b16 813d 022e 5cbd
00000260: c4b7 b63c 30d4 e33c 46aa 3b3c 0fc3 32bc
00000270: a103 633d a878 94bb daf1 f93c 1f2e f2bc
00000280: 882d 3dbd ab80 623c f579 c53c e6d2 ec3c
00000290: fcbc a8bc 2668 55bd 3359 3e3c 1fd4 2abd
000002a0: 239a b5bb 6ea5 d4bc 7cb4 77bd c99c 7b3c
000002b0: 3828 823b faac 7abd 881a 083d ee69 50b8
000002c0: 309e 7bbc 77ad 1fbd 7c8f 303d 263b 073c
000002d0: 2110 9bbc 7b52 60bb 4de4 e1bc 2407 32bd
000002e0: b5f6 c63b 70e8 823c 111a 2f3d e169 cfbc
000002f0: 7cfa 653d 8224 0dbd 3bc4 98bb ac1f c13b
00000300: 8a26 42bd 026b 17bd 0f58 1b3b bc26 ce3c
00000310: 0c9d 14bd 7eac 1cbd b9a4 98bc fa01 523d
00000320: fa4d 26bd 2794 103d 0607 2b3d d2e7 62bd
00000330: a822 4ebc 8cec e2bc 0b9d 453c 05e0 aabc
00000340: be57 70bd 214e db3c f91c 4e3d ba49 003d
00000350: f300 04bd 6402 53bd 1773 71bd c5bc a9bc
00000360: a3e9 e2bc 763a 463d 07c5 1ebd 449b 46bd
00000370: 8fa4 4f3c e090 6f3c 25db 7e3d fabc a6bc
00000380: bf56 4f3d d811 c3bc 9082 39bd a807 86bc
00000390: d3ea 20bd ef40 063c 8d36 6fbc 2f7d 6dbd
000003a0: 5389 b43c 9fbf 1ebd c578 b83c ba0a dd3c
000003b0: 098d 22bd 6f56 cb3b a3fc 163d b44e 493c
000003c0: 10a7 a53b f5cd 70bd 3c28 17bd 6ec3 7cbd
000003d0: fb90 723d 0b4c 4c3d 81d9 8b3b ae20 a73c
000003e0: 1502 9d3b 7d0a 7f3d e890 19bd 984d d53c
000003f0: 7e33 f93c 8a72 36bd a685 6c3d 1cc3 dbbc

fc1.bias f4 [128]
-0.05550505 0.017167648 0.061635725 0.0017109257 -0.056293253 -0.061185613 -0.05231385 0.010635728
0.022288593 0.036338903 -0.048038404 0.034511182 -0.034774166 0.04671132 -0.036822975 -0.0063603423
-0.052668065 -0.05382344 -0.020650845 0.05450441 -0.048281353 -0.0069776713 0.03635149 0.0036752163
0.043152 -0.045326322 0.011878019 -0.014980689 0.06753716 -0.0071763424 0.02478625 -0.021337932
-0.034065433 0.045715302 0.0071035638 0.04112636 0.028809343 -0.00027316215 -0.012517361 -0.05288847
-0.03228643 -0.025014827 -0.010848921 -0.025421426 -0.030658588 -0.057486676 -0.04658896 -0.044476718
-0.0023577367 0.045907147 -0.04162148 -0.0006523734 -0.013566023 0.035891835 -0.049695317 0.017964108
-0.02864036 0.030832566 0.030433876 -0.061789516 -0.036058474 0.022475973 0.049180523 0.03750385
-0.014559246 -0.047815334 0.015220942 -0.034918096 -0.054029454 0.059889328 0.042392004 0.026418606
0.037105147 0.009139942 -0.027838245 0.038398616 0.032163292 0.025560476 -0.0128050065 -0.009717296
0.058051273 0.008840901 0.027057104 0.051435355 0.009931803 0.030999217 0.03713258 -0.06193757
0.065859586 0.01938577 -0.007038263 0.05986379 0.0507 -0.010065797 0.032847628 -0.022288553
-0.022082033 -0.038853567 0.051964533 -0.023808805 -0.011807092 -0.049920116 0.049863964 0.06015752
-0.03673609 0.01348591 0.05091616 -0.04156288 -0.0094331745 0.048327927 0.021921579 0.018985463
-0.015141315 -0.010504834 0.033294164 -0.006318219 0.037905883 -0.04608015 -0.043503094 -0.036768712
0.051319618 -0.028907176 -0.0034013805 -0.026752342 0.04223542 -0.06411195 0.013352854 0.025414212
00000000: 4359 63bd 2ba3 8c3c be75 7c3d 2441 e03a
00000010: c193 66bd c49d 7abd 0c47 56bd 7a41 2e3c
00000020: 9196 b63c 1ad8 143d ebc3 44bd 995b 0d3d
00000030: 5b6f 0ebd 5e54 3f3d b0d3 16bd 6b6a d0bb
00000040: 78ba 57bd f875 5cbd f62b a9bc 0440 5f3d
00000050: abc2 45bd f3a4 e4bb 4de5 143d e6db 703b
00000060: 27c0 303d 18a8 39bd 069c 423c 9071 75bc
00000070: ec50 8a3d 8627 ebbb 890c cb3c e3cc aebc
00000080: 3288 0bbd f83f 3b3d 03c5 e83b 1d74 283d
00000090: 9201 ec3c 3437 8fb9 9e15 4dbc 95a1 58bd
000000a0: c73e 04bd e5eb ccbc acbf 31bc 9840 d0bc
000000b0: b827 fbbc 2677 6bbd 11d4 3ebd 382d 36bd
000000c0: 4284 1abb 2209 3c3d 497b 2abd 0a04 2bba
000000d0: 0644 5ebc 5103 133d 518d 4bbd 7729 933c
000000e0: 309f eabc 9494 fc3c 7750 f93c 0117 7dbd
000000f0: 0db2 13bd 881f b83c 8471 493d a39d 193d
00000100: e789 6ebc 03da 43bd 4261 793c 4706 0fbd
00000110: fd4d 5dbd 834e 753d 3da3 2d3d d56b d83c
00000120: 91fb 173d b2bf 153c 080d e4bc de47 1d3d
00000130: a8bd 033d 3464 d13c 17cc 51bc 4b35 1fbc
00000140: 2cc7 6d3d 6dd9 103c dca6 dd3c e1ad 523d
00000150: 00b9 223c 12f2 fd3c 5518 183d 40b2 7dbd
00000160: 64e1 863d e8ce 9e3c 3ba1 e6bb bc33 753d
00000170: ceaa 4f3d 03eb 24bc 3c8b 063d 7c96 b6bc
00000180: 61e5 b4bc eb24 1fbd c3d8 543d af0a c3bc
00000190: 8972 41bc 0979 4cbd 283e 4c3d bb67 763d
000001a0: 9578 16bd 02f4 5c3c 778d 503d d73d 2abd
000001b0: 9a8d 1abc 81f3 453d e294 b33c 6787 9b3c
000001c0: 4713 78bc 781c 2cbc 765f 083d 1009 cfbb
000001d0: 3343 1b3d 8abe 3cbd 4d30 32bd ca9a 16bd
000001e0: 8534 523d bece ecbc b2e9 5ebb ba27 dbbc
000001f0: 0cff 2c3d 204d 83bd eec5 5a3c 7731 d03c

fc2.weight f4 [64, 128]
-0.06686556 0.14092423 -0.032767106 0.018074553 0.0514443 -0.057671625 -0.072653905 0.046268407
0.062091053 0.13603339 -0.08151391 0.007840662 0.03725418 -0.020192835 0.03748517 0.010529932
-0.03970168 0.020128766 -0.07007137 -0.027178885 0.009443018 -0.020987645 -0.07909813 -0.04173006
-0.051195808 0.03056274 -0.04790127 -0.03622925 0.058347568 0.12335365 -0.07225052 0.048593156
0.027567985 0.006105829 0.034939375 -0.07444439 -0.062960245 -0.051232155 0.13120443 -0.08813417
-0.05771659 -0.11713074 -0.0074139684 -0.06874256 -0.107733645 -0.009989415 0.014612076 -0.09497646
-0.07679124 -0.040466707 -0.03899569 -0.03437955 0.0097136125 0.062182516 -0.036161695 0.031033356
0.049568165 -0.08759881 0.1527579 -0.014475331 -0.06786921 -0.04046457 -0.015790928 0.110744245
-0.090205 0.04335528 0.06728843 -0.005308341 -0.10167891 0.007424622 0.10301505 -0.06931872
-0.016049951 0.045698375 -0.047603495 -0.052251898 0.07852239 0.054390788 -0.0817096 0.06588911
0.06616711 -0.01338395 0.09899963 -0.06569877 0.0007104246 0.008386631 0.015060839 0.07577587
0.09440327 0.02193758 -0.08353113 -0.021377796 -0.022927998 0.057971492 -0.0052561625 0.056896478
0.047254235 0.055635124 -0.054797098 -0.051027495 0.044872183 -0.082458 0.10724258 -0.08620575
-0.009604944 0.11898962 -0.004154855 0.07648074 0.0036118825 -0.04787117 -0.00308066 -0.033733126
0.036024112 0.01426554 -0.004620468 0.056892127 0.1242082 0.103215925 -0.063797206 0.006456073
-0.07588354 -0.025540723 -0.008106667 0.14687617 -0.0073925676 -0.004454322 0.13112612 -0.044471126
0.0025274493 0.020465458 -0.027398672 -0.0005999158 -0.05856423 -0.057776276 0.030451631 -0.081671685
-0.05971384 -0.024098232 0.074769445 0.046877712 0.02675511 -0.040036693 -0.05456634 -0.058193695
-0.043645598 0.09054036 -0.057250544 -0.061176233 -0.061731536 0.015576376 -0.03269465 0.075721696
-0.05462492 -0.06900477 -0.017813075 -0.07421915 -0.07811011 0.037637245 -0.08155867 -0.057995476
0.041449923 0.056866337 -0.07117397 0.035575334 -0.06036048 -0.041253548 -0.06753975 0.067973115
-0.037846133 -0.042741735 0.021728583 -0.04817651 -0.039069925 0.031419653 -0.01692537 0.036732476
0.06881069 -0.07570654 0.03938378 -0.07847373 0.08099964 0.03463126 0.0022530805 -0.04920928
0.065298945 0.047166593 -0.063288614 0.01588149 -0.014822184 0.017156145 -0.064444676 0.07145385
0.07777938 0.08892883 -0.07497323 0.022773936 0.0002772433 0.040473778 -0.060556155 0.060688086
-0.07894707 0.03650866 -0.01567325 -0.06453281 0.0627087 -0.06796132 0.060254112 0.014387862
0.08977875 -0.055200085 -0.044581678 0.044068538 -0.016676472 0.06334114 -0.028898187 -0.018241938
0.0010621572 0.07492744 -0.06991468 0.053170647 0.020394882 0.016710322 -0.052031774 0.06350584
0.075623624 0.006568335 0.0049504773 0.009340787 0.0053805374 0.008449518 -0.07469893 -0.052333094
0.08836379 -0.0724834 0.0013971023 -0.0002624348 0.07657327 -0.010917453 0.079726525 0.07310579
0.032196358 0.018341629 -0.07722594 -0.042576797 -0.009718373 -0.03125309 0.057411477 0.08175939
-0.049118515 -0.07757085 0.035508223 0.0020751618 -0.054364994 0.064548045 0.009912634 0.022298438
00000000: d0f0 88bd 714e 103e cd36 06bd 1611 943c
00000010: 42b7 523d 1539 6cbd 92cb 94bd f183 3d3d
00000020: 3053 7e3d 564c 0b3e c4f0 a6bd 1f76 003c
00000030: d797 183d 726b a5bc 0d8a 193d bc85 2c3c
00000040: 3b9e 22bd 15e5 a43c 9481 8fbd 41a6 debc
00000050: e3b6 1a3c 48ee abbc 33fe a1bd 24ed 2abd
00000060: b2b2 51bd b65e fa3c 1f34 44bd 1f65 14bd
00000070: dcfd 6e3d d7a0 fc3d 15f8 93bd 9e09 473d
00000080: 41d6 e13c 6813 c83b 971c 0f3d 4d76 98bd
00000090: 4df1 80bd cfd8 51bd 745a 063e b07f b4bd
000000a0: 3b68 6cbd 3ee2 efbd e0f0 f2bb e6c8 8cbd
000000b0: 75a3 dcbd a5aa 23bc 7d67 6f3c 0583 c2bd
000000c0: ba44 9dbd 6bc0 25bd f2b9 1fbd 92d1 0cbd
000000d0: d825 1f3c 18b3 7e3d 491e 14bd aa39 fe3c
000000e0: fd07 4b3d 0167 b3bd 916c 1c3e f029 6dbc
000000f0: 03ff 8abd 2dbe 25bd fa5b 81bc e1cd e23d
00000100: 66bd b8bd 4e95 313d 84ce 893d 97f1 adbb
00000110: 083d d0bd 3e4a f33b 8ef9 d23d f9f6 8dbd
00000120: 307b 83bc 382e 3b3d e2fb 42bd 1606 56bd
00000130: 59d0 a03d e0c8 5e3d 5d57 a7bd dff0 863d
00000140: 9f82 873d 5b48 5bbc 51c0 ca3d 148d 86bd
00000150: ca3b 3a3a 1468 093c bdc1 763c 6130 9b3d
00000160: 8056 c13d 71b6 b33c 5e12 abbd 7d20 afbc
00000170: 7fd3 bbbc 8473 6d3d e33b acbb 480c 693d
00000180: a88d 413d a8e1 633d ec72 60bd 3502 51bd
00000190: e5cb 373d bddf a8bd ffa1 db3d a48c b0bd
000001a0: 0e5e 1dbc d4b0 f33d 7325 88bb efa1 9c3d
000001b0: 55b5 6c3b 8f14 44bd e6e4 49bb bf2b 0abd
000001c0: 058e 133d 03ba 693c 4b67 97bb b807 693d
000001d0: de60 fe3d df62 d33d 1ca8 82bd 778d d33b
000001e0: d468 9bbd c73a d1bc d3d1 04bc b566 163e
000001f0: 5a3d f2bb 90f5 91bb ed45 063e 5b27 36bd
00000200: 90a3 253b 2da7 a73c 2e73 e0bc ab43 1dba
00000210: 0ce1 6fbd d1a6 6cbd b375 f93c 7c43 a7bd
00000220: 8096 74bd a869 c5bc b920 993d d802 403d
00000230: 882d db3c 84fd 23bd f480 5fbd 835c 6ebd
00000240: bac5 32bd 396d b93d 8c7f 6abd ee93 7abd
00000250: 35da 7cbd 0e34 7f3c d3ea 05bd fa13 9b3d
00000260: 61be 5fbd 5f52 8dbd baec 91bc 3600 98bd
00000270: 31f8 9fbd 8329 1a3d 3b08 a7bd aa8c 6dbd
00000280: 65c7 293d adec 683d a9c3 91bd 71b7 113d
00000290: 8d3c 77bd 7bf9 28bd 4852 8abd 7d35 8b3d
000002a0: 8c04 1bbd f511 2fbd 2400 b23c bb54 45bd
000002b0: c907 20bd e5b1 003d 13a7 8abc cb74 163d
000002c0: 9eec 8c3d 080c 9bbd e350 213d d6b6 a0bd
000002d0: 24e3 a53d 82d9 0d3d 6ba8 133b ac8f 49bd
000002e0: 74bb 853d c231 413d 769d 81bd e619 823c
000002f0: bfd8 72bc 0b8b 8c3c 92fb 83bd 6556 923d
00000300: cc4a 9f3d 5220 b63d 918b 99bd 6890 ba3c
00000310: f75a 9139 d5c7 253d bb09 78bd 1294 783d
00000320: 00af a1bd 1b8a 153d 3065 80bc c729 84bd
00000330: 6b6d 803d 4e2f 8bbd 04cd 763d 11bb 6b3c
00000340: ecdd b73d 7c19 62bd 479b 36bd 3681 343d
00000350: 199d 88bc 00b9 813d e4bb ecbc 1e70 95bc
00000360: 1538 8b3a 8f73 993d 6e2f 8fbd 77c9 593d
00000370: 2b13 a73c 16e4 883c 451f 55bd 5a0f 823d
00000380: 8fe0 9a3d 303b d73b 9d37 a23b 1a0a 193c
00000390: 384f b03b d96f 0a3c c1fb 98bd 3a5b 56bd
000003a0: 13f8 b43d 2d72 94bd f91e b73a 6797 89b9
000003b0: 72d2 9c3d 1edf 32bc a947 a33d 7db8 953d
000003c0: 54e0 033d 2f41 963c a228 9ebd 0265 2ebd
000003d0: d039 1fbc 3d03 00bd 4c28 6b3d 7871 a73d
000003e0: 7f30 49bd 77dd 9ebd 1271 113d 70ff 073b
000003f0: d4ad 5ebd c431 843d 9a68 223c 37ab b63c

fc2.bias f4 [64]
-0.037873887 -0.05009864 -0.082252145 -0.06432183 0.028893862 0.073224254 -0.009402895 0.041745596
0.0049794307 -0.051802803 0.05669908 -0.028683193 0.0676636 -0.06632414 0.046240393 0.066532545
0.04414314 -0.083929814 -0.053441893 0.063749425 -0.08643316 -0.010307673 -0.06503407 0.038713228
-0.05932608 0.09731921 0.003062946 0.0017106278 0.09381274 0.020580366 0.0596123 -0.06351851
-0.07926045 0.08967049 0.037590463 -0.0728855 0.029294694 -0.015607694 -0.054429527 -0.05281998
0.014398601 -0.0071016722 -0.005805022 -0.07314778 0.058803163 -0.003910903 -0.05714153 0.013943267
0.039732277 0.04831528 -0.077727415 -0.00956402 -0.006046907 -0.052674424 -0.07160607 0.088137016
0.07749046 -0.07224411 -0.008220891 -0.027218146 -0.06116119 -0.017796936 -0.057422608 -0.03223499
00000000: a621 1bbd 3b34 4dbd d073 a8bd 2abb 83bd
00000010: d2b2 ec3c 99f6 953d 9a0e 1abc 6efd 2a3d
00000020: 7e2a a33b 2d2f 54bd 4b3d 683d 04f9 eabc
00000030: 3793 8a3d f3d4 87bd 9166 3d3d 3742 883d
00000040: 70cf 343d 65e3 abbd e3e5 5abd 0f8f 823d
00000050: de03 b1bd 84e1 28bc 9530 85bd c391 1e3d
00000060: e7ff 72bd 4b4f c73d b5bb 483b 2537 e03a
00000070: e520 c03d 2898 a83c 072c 743d fe15 82bd
00000080: 4e53 a2bd 29a5 b73d 75f8 193d fe44 95bd
00000090: 6dfb ef3c 6ab7 7fbc 7ff1 5ebd c359 58bd
000000a0: 1ce8 6b3c 25b5 e8bb 0e38 bebb 81ce 95bd
000000b0: 96db 703d 0827 80bb 3d0d 6abd 4d72 643c
000000c0: 50be 223d 3ee6 453d 8d2f 9fbd 68b2 1cbc
000000d0: 2225 c6bb 23c1 57bd 34a6 92bd 2e81 b43d
000000e0: 51b3 9e3d b8f4 93bd eab0 06bc 97f8 debc
000000f0: 2884 7abd e1ca 91bc f833 6bbd d608 04bd

fc3.weight f4 [10, 64]
0.1705518 -0.0086326385 0.007873687 -0.042652726 -0.14904235 -0.21288052 -0.18824382 -0.099753015
0.020597281 -0.12617345 0.07265347 0.21290657 0.030948116 0.180197 -0.13564622 -0.23350117
0.043062817 -0.02882792 0.121440604 -0.07535884 -0.09950807 0.066167995 -0.021861106 -0.08422876
0.08289384 -0.1970198 0.034727026 -0.1769396 0.1574018 0.24665274 0.08606821 -0.08089694
0.10560483 0.10856617 -0.11764612 0.113768645 0.09021843 -0.11817652 -0.010320395 0.11490981
0.11791446 0.17335124 -0.09686232 -0.036384366 -0.049960714 -0.10549681 0.17423889 -0.02522219
0.20018698 0.105638705 -0.114522226 0.06969949 -0.08242726 0.013018961 -0.08441391 0.061167452
-0.00427448 -0.11283002 -0.09381066 -0.06108482 -0.13023196 -0.14732888 0.029676955 -0.109261245
0.039118174 -0.07226098 0.10547631 0.076884195 0.30420315 -0.19559987 0.05102328 0.2139952
0.105593726 0.0010922402 -0.16184239 -0.27872434 0.023745136 0.19683175 0.109915905 0.17149365
0.060948744 -0.015192507 0.062169712 -0.24515878 -0.14293095 0.06540859 -0.028654397 0.07617776
-0.13481782 0.030980362 0.023354655 0.025362799 -0.19957037 -0.15935235 0.09586448 0.0001702984
0.022839002 -0.07292526 0.06781096 -0.071617305 0.0036763118 -0.09863393 -0.054986883 0.10726547
0.020352151 0.09649339 0.026502706 0.044391304 -0.18223192 -0.14497235 0.10126859 -0.013887094
0.12211552 0.15567344 -0.19548914 0.1541577 0.06755075 0.014298472 0.06992554 -0.17600314
0.09470272 0.122302964 -0.11555657 -0.09005622 0.13194378 -0.17375599 0.08615745 0.14181319
0.15654051 0.0014924445 -0.019962657 -0.055013984 0.18787818 -0.100661576 0.17095242 0.033322517
-0.045749515 0.014312567 0.06894211 -0.055502303 0.053953975 0.09592114 0.108338274 -0.107411966
0.009566388 0.13842206 0.086727686 -0.21950546 0.08426811 -0.016733924 0.10485929 -0.18749093
-0.031704064 -0.18922916 0.061823778 -0.080997154 0.19233218 -0.27322748 0.11716973 -0.08400542
-0.19957736 -0.13755661 -0.13340344 0.1006925 -0.020167794 -0.08283359 0.113705054 -0.045941345
0.048755087 -0.08924661 0.086306036 -0.06007432 0.045026142 0.26911148 0.047459055 0.15711522
-0.11994401 -0.16698258 -0.09814286 -0.015615711 0.28601047 -0.07268692 0.046152834 0.030817373
0.010333175 0.0309616 -0.10446431 -0.09221165 0.058121707 0.04965418 0.0055222907 -0.1046853
0.17807658 0.03997287 -0.09281278 0.1880877 -0.18416402 0.12038539 0.22386365 -0.1550856
0.07382657 0.042438332 0.21931653 0.16878945 -0.20625918 0.07174138 0.016112743 0.24170095
-0.056069314 -0.050739363 -0.14533362 -0.06950639 -0.12927127 -0.25161472 0.089051515 -0.0021248823
-0.0874155 0.068414435 -0.0884825 0.18427475 -0.14928976 -0.14015171 -0.022668136 -0.20287539
0.058609158 0.14276329 -0.058014303 0.020100022 0.16470273 -0.011302998 0.007869639 0.11059586
-0.143826 -0.10421884 0.10458251 -0.10231498 -0.20915794 0.046039514 0.0049525 0.03821796
0.047451735 -0.043436754 0.12000564 0.040594153 -0.10847301 -0.061878122 0.10799361 -0.10374817
0.1972012 0.060969595 0.06375775 -0.13055454 -0.10012248 -0.11334561 -0.032936107 -0.00848369
00000000: 22a5 2e3e e96f 0dbc a300 013c a0b4 2ebd
00000010: 8f9e 18be 5afd 59be fdc2 40be 4f4b ccbd
00000020: a1bb a83c 9d33 01be 58cb 943d 2e04 5a3e
00000030: e786 fd3c 9085 383e d8e6 0abe ee1a 6fbe
00000040: a362 303d 8828 ecbc dab5 f83d bc55 9abd
00000050: e3ca cbbd 1683 873d 1016 b3bc 2180 acbd
00000060: 3fc4 a93d 8fbf 49be ed3d 0e3d a82f 35be
00000070: f02d 213e 8992 7c3e 8844 b03d 4bad a5bd
00000080: 5847 d83d f157 de3d 73f0 f0bd 89ff e83d
00000090: 71c4 b83d 8806 f2bd e016 29bc d655 eb3d
000000a0: 237d f13d fd82 313e c15f c6bd c607 15bd
000000b0: 9ba3 4cbd b60e d8bd ae6b 323e c49e cebc
000000c0: d1fd 4c3e 1b59 d83d a18a eabd 9bbe 8e3d
000000d0: a0cf a8bd 7b4d 553c 33e1 acbd b98a 7a3d
000000e0: f010 8cbb 6d13 e7bd ce1f c0bd 1434 7abd
000000f0: 875b 05be 62dd 16be 161d f33c 5cc4 dfbd
00000100: 613a 203d 91fd 93bd f703 d83d 7675 9d3d
00000110: 84c0 9b3e 554b 48be c9fd 503d 8f21 5b3e
00000120: 8641 d83d 8029 8f3a 03ba 25be f5b4 8ebe
00000130: 2985 c23c 438e 493e 971b e13d 089c 2f3e
00000140: 64a5 793d fee9 78bc aba5 7e3d e70a 7bbe
00000150: 7e5c 12be f0f4 853d a0bc eabc 1603 9c3d
00000160: af0d 0abe 87ca fd3c 4352 bf3c a5c5 cf3c
00000170: 2d5c 4cbe 432d 23be 9954 c43d 2192 3239
00000180: dc18 bb3c d759 95bd 79e0 8a3d 18ac 92bd
00000190: 47ee 703b 9600 cabd ed39 61bd 00ae db3d
000001a0: 8eb9 a63c 549e c53d 341c d93c a8d3 353d
000001b0: 019b 3abe a273 14be e865 cf3d b286 63bc
000001c0: b417 fa3d dc68 1f3e 4e2e 48be 84db 1d3e
000001d0: 0c58 8a3d 2344 6a3c 1f35 8f3d 2b3a 34be
000001e0: 80f3 c13d fa79 fa3d eca8 ecbd 656f b8bd
000001f0: 451c 073e 17ed 31be 5173 b03d 7a37 113e
00000200: 284c 203e 219e c33a ba88 a3bc 5856 61bd
00000210: 2363 403e a827 cebd 270e 2f3e 317d 083d
00000220: d863 3bbd 427f 6a3c 8531 8d3d 6256 63bd
00000230: d8fe 5c3d 4d72 c43d 75e0 dd3d cefa dbbd
00000240: 57bc 1c3c 83be 0d3e 499e b13d 0ac6 60be
00000250: c294 ac3d 9515 89bc 78c0 d63d 9ffd 3fbe
00000260: 1fdc 01bd 4ac5 41be ee3a 7d3d d6e1 a5bd
00000270: baf2 443e 79e4 8bbe aff6 ef3d 090b acbd
00000280: 025e 4cbe a4db 0cbe e99a 08be df37 ce3d
00000290: ee36 a5bc a8a4 a9bd 32de e83d fe2c 3cbd
000002a0: 6ab3 473d edc6 b6bd 38c1 b03d 7d10 76bd
000002b0: 556d 383d fbc8 893e 6d64 423d d0e2 203e
000002c0: 35a5 f5bd 7bfd 2abe 20ff c8bd 0ad9 7fbc
000002d0: f76f 923e e1dc 94bd c10a 3d3d b774 fc3c
000002e0: 7a4c 293c 2ea3 fd3c 62f1 d5bd 76d9 bcbd
000002f0: 0711 6e3d 2e62 4b3d 55f4 b43b 3f65 d6bd
00000300: b559 363e 98ba 233d a014 bebd 109a 403e
00000310: 7e95 3cbe 9e8c f63d 833c 653e c2ce 1ebe
00000320: 6232 973d d1d3 2d3d 8394 603e 24d7 2c3e
00000330: 9b35 53be 25ed 923d dffe 833c 7480 773e
00000340: f0a8 65bd 14d4 4fbd 56d2 14be 5e59 8ebd
00000350: b05f 04be a5d3 80be a460 b63d 9c41 0bbb
00000360: e606 b3bd de1c 8c3d 5036 b5bd 85b2 3c3e
00000370: 6adf 18be ee83 0fbe 87b2 b9bc 91be 4fbe
00000380: 2810 703d 8a30 123e 68a0 6dbd cda8 a43c
00000390: d5a7 283e 3630 39bc a9ef 003c 1580 e23d
000003a0: 1f47 13be b070 d5bd 5b2f d63d 848a d1bd
000003b0: 802d 56be ee93 3c3d 9548 a23b 708a 1c3d
000003c0: c05c 423d bdea 31bd 84c5 f53d 0e46 263d
000003d0: 1927 debd ea73 7dbd c12b dd3d ec79 d4bd
000003e0: 1def 493e 41bb 793d 6c93 823d 17b0 05be
000003f0: 040d cdbd be21 e8bd 03e8 06bd 2dff 0abc

fc3.bias f4 [10]
0.05497467 -0.09132883 -0.00031829908 0.024274576 0.05153486 0.04205217 -0.072653726 -0.0055012847
0.028020263 0.083415315
00000000: 1f2d 613d 9c0a bbbd 61e1 a6b9 7adb c63c
00000010: 3816 533d e53e 2c3d 7acb 94bd 1f44 b4bb
00000020: c08a e53c a6d5 aa3d
